problem_statements/results/model.pth (torch, 89871 bytes, 8 tensors)

conv1.weight f4 [10, 1, 5, 5]
0.09198861 -0.15454742 -0.21023114 -0.12465521 -0.32065734 0.1788799 -0.01198791 0.02427928
-0.042639773 -0.06946509 0.17858629 0.19009462 0.23628317 0.07327601 0.080833584 0.04172412
0.17305796 0.16606434 0.31711847 0.18938746 -0.14183363 -0.17387433 -0.123527035 -0.14743848
-0.051336892 0.11431024 0.30078787 0.1289638 -0.36340246 -0.12196839 0.20350002 0.37248698
0.11123796 -0.3625414 -0.36060938 0.12685697 0.39075783 -0.09352925 -0.12114573 -0.24848783
0.36734456 0.082242236 0.13158262 -0.10314854 -0.1738955 0.24867715 0.05713645 0.14184158
-0.033738893 -0.008455937 -0.332296 -0.20477271 0.10701507 0.06830432 0.2988999 0.022187255
-0.047596563 0.0032624044 0.3061482 0.15222542 -0.16613601 0.18644592 0.29796806 0.3331921
-0.1110768 0.035408374 0.10107429 0.16090246 -0.095717095 -0.19385013 0.18460578 0.05018091
0.15151882 -0.010449887 -0.008550292 0.13196455 0.22782508 0.2513857 -0.06533039 0.18584046
-0.13701703 -0.084128104 0.096231356 0.061759826 0.20864785 -0.1411314 -0.19596475 0.099250294
-0.046022512 0.14113355 0.04113667 -0.21399239 -0.086954996 -0.052294675 -0.18310873 -0.091601245
0.016227208 -0.084182665 -0.18684116 -0.12844123 0.29502398 0.058010437 0.18621524 0.11541133
-0.17523128 -0.06741272 0.40283376 0.19537635 0.20476599 0.065378055 0.20405783 0.5038384
0.47358644 -0.036693186 0.114082076 0.22821674 0.3807538 0.28697225 -0.06826083 -0.048796453
-0.18443778 0.041542836 0.22678101 -0.08170676 0.2177211 -0.16601808 -0.2822906 -0.095866345
0.243113 0.36638582 -0.07369863 0.106748536 0.31175277 0.39383572 0.28864828 0.28325063
0.23295817 0.15186222 0.012177699 -0.13280095 -0.0051759994 0.001417444 -0.10617393 0.15338348
0.07986413 -0.06128131 0.036249243 0.06246442 0.17543681 0.14789431 -0.09963037 0.14735056
-0.03336426 0.01869146 -0.18297404 -0.18546566 -0.17510128 -0.09635672 0.172427 -0.06606745
-0.19566481 0.05084591 0.08033913 0.15144221 -0.11872214 0.041653905 -0.04278889 0.009005305
-0.1282408 -0.06925591 -0.0073035555 0.15365241 0.11843309 0.13217206 0.29187953 0.14091569
0.10849806 0.014873411 -0.16331099 0.116933726 -0.15212832 -0.106210865 -0.2575869 -0.1958361
-0.2833009 0.12621962 -0.20005731 -0.21605927 -0.13523425 -0.19807786 0.1500762 0.061691955
0.0360307 0.08608619 0.24551208 -0.008079415 0.34050962 0.4094532 0.39396602 -0.002326191
0.06556573 -0.13586812 0.21248604 0.007502309 0.18730414 0.036976103 0.011401396 0.06627776
0.17860565 0.23672046 0.045634203 0.064906195 -0.13648771 0.26697934 0.34565935 0.105066605
0.06607203 -0.204329 -0.04936764 0.2862854 -0.32377577 0.007132942 -0.29400846 -0.21077867
0.10788518 -0.1296802 -0.0004279498 0.29182673 0.35396728 0.33990276 -0.07766903 -0.17512667
0.3188696 0.13101985 0.03844678 -0.036367968 -0.1923121 0.16389272 0.20055257 -0.11489036
-0.24290156 -0.078176655 0.06405553 0.0048103575 -0.11286041 -0.06617783 -0.25050706 -0.18413605
-0.14850977 0.11565679
00000000: 8664 bc3d ae41 1ebe d546 57be 3b4b ffbd
00000010: 332d a4be 4b2c 373e f068 44bc 57e5 c63c
00000020: 0ba7 2ebd b743 8ebd 53df 363e 2aa8 423e
00000030: 37f4 713e bc11 963d 148c a53d e9e6 2a3d
00000040: 1b36 313e c50c 2a3e 5a5d a23e c9ee 413e
00000050: d63c 11be 1d0c 32be befb fcbd 1dfa 16be
00000060: a246 52bd 7d1b ea3d de00 9a3e 160f 043e
00000070: e30f babe 90ca f9bd 4f62 503e 9db6 be3e
00000080: bad0 e33d 079f b9be cba1 b8be cbe6 013e
00000090: 6911 c83e 438c bfbd 411b f8bd 9873 7ebe
000000a0: 9614 bc3e 9e6e a83d 98bd 063e 8b3f d3bd
000000b0: a911 32be 39a5 7e3e e907 6a3d eb3e 113e
000000c0: cb31 0abd c58a 0abc b422 aabe f0af 51be
000000d0: b82a db3d 23e3 8b3d 6809 993e 0cc2 b53c
000000e0: 9df4 42bd 10ce 553b 75bf 9c3e fbe0 1b3e
000000f0: 8f1f 2abe aeeb 3e3e 458f 983e 2898 aa3e
00000100: 3c7c e3bd 5f08 113d 0a00 cf3d 9dc3 243e
00000110: 5307 c4bd a680 46be 4c09 3d3e 7f8a 4d3d
00000120: c027 1b3e 0136 2bbc 8616 0cbc b721 073e
00000130: fa4a 693e a0b5 803e f1cb 85bd f64c 3e3e
00000140: 314e 0cbe 5b4b acbd f214 c53d dff7 7c3d
00000150: c8a7 553e c084 10be fcaa 48be bd43 cb3d
00000160: 1a82 3cbd 5085 103e ed7e 283d d220 5bbe
00000170: 7615 b2bd f132 56bd db80 3bbe 6f99 bbbd
00000180: ecee 843c f667 acbd 4a53 3fbe 1986 03be
00000190: 620d 973e 5a9c 6d3d 35af 3e3e c65c ec3d
000001a0: d46f 33be ae0f 8abd 3a40 ce3e bd10 483e
000001b0: 2dae 513e eee4 853d 89f4 503e 8efb 003f
000001c0: ec79 f23e 984b 16bd dda3 e93d a6b1 693e
000001d0: 29f2 c23e 07ee 923e 56cc 8bbd cade 47bd
000001e0: 42dd 3cbe d228 2a3d 4839 683e e055 a7bd
000001f0: 48f2 5e3e a500 2abe 6588 90be 9355 c4bd
00000200: 9df2 783e ec96 bb3e 4fef 96bd fa9e da3d
00000210: 0f9e 9f3e d6a4 c93e b5c9 933e 3a06 913e
00000220: 968c 6e3e c581 1b3e f984 473c f9fc 07be
00000230: 6e9b a9bb 87c9 b93a b871 d9bd 8f10 1d3e
00000240: ce8f a33d 1c02 7bbd 167a 143d b1da 7f3d
00000250: b5a5 333e 9b71 173e 020b ccbd 11e3 163e
00000260: f6a8 08bd d51e 993c 8c5d 3bbe b6ea 3dbe
00000270: c04d 33be ac56 c5bd b490 303e 5f4e 87bd
00000280: 5b5c 48be cd43 503d d788 a43d ab13 1b3e
00000290: 9824 f3bd 499d 2a3d 6743 2fbd fd8a 133c
000002a0: 8e51 03be 0bd6 8dbd aa52 efbb 0f57 1d3e
000002b0: 0c8d f23d 1d58 073e 3c71 953e 344c 103e
000002c0: 3b34 de3d 9baf 733c ff3a 27be f37a ef3d
000002d0: 87c7 1bbe 1585 d9bd 6ee2 83be 4289 48be
000002e0: d10c 91be b73f 013e d3db 4cbe a43e 5dbe
000002f0: d97a 0abe ecd4 4abe 93ad 193e b4b0 7c3d
00000300: ed94 133d f54d b03d 8567 7b3e 865f 04bc
00000310: 4757 ae3e daa3 d13e eab5 c93e 0273 18bb
00000320: 5347 863d 0321 0bbe f195 593e eed5 f53b
00000330: a8cc 3f3e 4174 173d eccc 3a3c a2bc 873d
00000340: 66e4 363e d966 723e eeea 3a3d 8aed 843d
00000350: 6fc3 0bbe 84b1 883e 43fa b03e 292d d73d
00000360: c650 873d 9f3b 51be b935 4abd 0094 923e
00000370: f0c5 a5be 74bb e93b 4788 96be 5dd6 57be
00000380: e8f2 dc3d e3ca 04be 735e e0b9 506a 953e
00000390: 333b b53e bc07 ae3e f110 9fbd 6854 33be
000003a0: e042 a33e 112a 063e 5f7a 1d3d 94f6 14bd
000003b0: 77ed 44be 7ed3 273e a75d 4d3e a34b ebbd
000003c0: 30bb 78be 151b a0bd 8c2f 833d 34a0 9d3b
000003d0: 5c23 e7bd 3e88 87bd 7642 80be 298e 3cbe
000003e0: f212 18be 78dd ec3d

conv1.bias f4 [10]
0.17240262 -0.09312958 0.043999076 0.099538505 0.19685352 0.016695935 0.12381329 0.12185447
0.057379514 0.062211987
00000000: 508a 303e b9ba bebd 6038 343d d8da cb3d
00000010: f893 493e eac5 883c d291 fd3d d68e f93d
00000020: c806 6b3d ffd1 7e3d

conv2.weight f4 [20, 10, 5, 5]
0.032006036 0.020592978 -0.08663756 0.038102698 0.03504131 -0.05179211 0.003992806 -0.086054996
0.05127964 -0.003612036 0.018676711 0.015797665 0.019715473 0.08343595 0.01608336 -0.06781014
-0.059611347 0.029001113 0.008793174 0.026292693 -0.011314278 0.051127244 0.10659135 0.07033065
0.00643723 -0.02168703 -0.08702394 -0.0042301193 -0.025774851 0.03401932 -0.023589153 -0.09477224
0.006961617 0.016979495 0.002807022 -0.060772575 -0.028277695 0.01849316 -0.030419158 -0.060950894
-0.006343364 0.043268334 0.052146994 -0.058834895 -0.05467201 0.021179559 0.021299964 0.046218265
-0.05094857 -0.002017452 -0.0067423843 -0.03134477 -0.027891591 0.007058045 0.06317782 -0.08218405
0.0010764288 0.092536144 0.098795444 0.01873198 0.006387958 0.05184132 0.06264183 -0.0064348006
0.016084518 -0.014132616 -0.024990369 -0.019358179 -0.082228735 -0.06840933 0.030800138 -0.05081186
-0.030189216 -0.061649796 -0.021195343 -0.0062352708 -0.04809627 -0.045841355 0.0012615008 -0.009488935
-0.0474673 -0.064787686 -0.06732859 0.04575787 -0.0030622112 -0.02569511 -0.033939 -0.050913237
-0.06632739 -0.027839264 0.04369496 0.025951376 -0.013325491 -0.016412128 0.05584742 0.03454619
0.07071975 0.04938522 0.050674386 0.005644702 -0.016913291 -0.09470448 0.022951253 0.028562065
0.0739871 -0.04794478 -0.10894956 -0.035460986 0.07611992 0.0015643203 -0.06736214 0.06641251
0.066445544 -0.012850882 -0.0133996485 -0.008059217 -0.015743615 0.06012489 -0.006804335 -0.04835733
0.009183499 -0.09288 -0.020099092 -0.00078422355 -0.055115826 0.032622226 0.022250697 0.048171483
0.026805095 -0.013038003 -0.013834691 0.059082754 0.05240254 0.018099708 0.0526852 0.015197022
0.09307646 0.10764154 0.08450144 0.011547631 -0.02404336 0.07965463 0.004376696 -0.06016578
-0.06926313 -0.07019948 -0.07913108 -0.08644704 0.019593868 -0.045221392 -0.020865895 0.016320456
0.034756437 -0.030620396 0.03772734 0.042029817 -0.044877667 0.07139244 -0.024527933 -0.020013763
-0.054969605 0.055473648 0.01996644 0.042276073 -0.009426428 0.028848385 -0.013374266 -0.038620614
0.010639618 -0.014897762 0.007026903 -0.02492812 0.016112255 0.015134833 -0.0042452896 -0.05292884
0.023239331 -0.029170208 0.014120731 0.066208385 -0.04379726 0.08529616 -0.07133539 0.056387216
0.049814697 -0.013682974 -0.067970216 0.013454191 0.0035181406 -0.009713059 -0.00452708 0.00890875
0.121041685 0.098595984 0.13400197 0.04802878 -0.019926358 0.0038390502 0.06403135 -0.047271047
0.008634193 -0.06301687 0.031440333 0.024613546 -0.030630875 -0.002395183 -0.07508099 -0.054876085
0.008632718 -0.035078194 0.008713157 -0.0029704147 0.06996797 0.0514912 0.047573674 0.051560715
-0.047517736 0.015664676 -0.0031582655 -0.091553114 0.0023485578 -0.024320405 0.029140443 0.011847746
0.016079975 0.0011427293 -0.06481353 0.051341463 0.020802105 0.007467257 0.0071478533 -0.055740125
0.017179353 -0.07180782 0.0021460224 0.017529195 0.057819247 -0.009239453 -0.04642779 0.023910835
-0.04418824 -0.0049958057 -0.030954966 -0.017329087 -0.04013378 -0.0651371 -0.045656476 -0.039156355
0.0393043 -0.06359239 -0.04292071 0.022868318 -0.04689156 0.04259184 0.03870598 -0.051056597
00000000: c318 033d 9bb2 a83c 086f b1bd 9311 1c3d
00000010: 7a87 0f3d f723 54bd 16d6 823b 9a3d b0bd
00000020: 9a0a 523d e8b7 6cbb e7ff 983c 1b6a 813c
00000030: 5882 a13c 78e0 aa3d 40c1 833c 0be0 8abd
00000040: 072b 74bd be93 ed3c 3f11 103c c663 d73c
00000050: 855f 39bc cd6a 513d 914c da3d 8409 903d
00000060: 66ef d23b 00a9 b1bc 9c39 b2bd d09c 8abb
00000070: c825 d3bc d857 0b3d 0a3e c1bc f317 c2bd
00000080: 471e e43b 9518 8b3c 04f6 373b aaec 78bd
00000090: a0a6 e7bc f87e 973c 9931 f9bc a5a7 79bd
000000a0: fedb cfbb 233a 313d 1698 553d dcfc 70bd
000000b0: c2ef 5fbd c180 ad3c 437d ae3c 5d4f 3d3d
000000c0: 73af 50bd 3a37 04bb 38ef dcbb 6063 00bd
000000d0: e87c e4bc 2c47 e73b 5f63 813d 1c50 a8bd
000000e0: f516 8d3a 9783 bd3d 4455 ca3d cf73 993c
000000f0: 1352 d13b 9057 543d 5c4a 803d 05db d2bb
00000100: aec3 833c 7d8c 67bc 9ab8 ccbc 0b95 9ebc
00000110: 8a67 a8bd 311a 8cbd 9250 fc3c 1920 50bd
00000120: 604f f7bc 7f84 7cbd dba1 adbc 3e51 ccbb
00000130: 9800 45bd 25c4 3bbd f158 a53a 7a77 1bbc
00000140: 126d 42bd 68af 84bd 92e3 89bd 9b6c 3b3d
00000150: 61af 48bb 8d7e d2bc 9f03 0bbd 668a 50bd
00000160: a8d6 87bd 2b0f e4bc 7df9 323d fb97 d43c
00000170: 2953 5abc ba72 86bc 44c0 643d 4e80 0d3d
00000180: 84d5 903d 2848 4a3d f28f 4f3d 31f7 b83b
00000190: be8d 8abc 6cf4 c1bd 4404 bc3c fefa e93c
000001a0: 8c86 973d bf61 44bd f220 dfbd 8a3f 11bd
000001b0: c3e4 9b3d e109 cd3a 29f5 89bd 4803 883d
000001c0: 9a14 883d 818c 52bc 338a 5bbc ce0a 04bc
000001d0: c1f8 80bc 8445 763d e6f6 debb 5612 46bd
000001e0: 6376 163c df37 bebd daa6 a4bc 5a94 4dba
000001f0: 22c1 61bd e29e 053d 1847 b63c 764f 453d
00000200: 5c96 db3c 599d 55bc e6aa 62bc c200 723d
00000210: 0ca4 563d d745 943c 70cc 573d eefc 783c
00000220: df9e be3d 2b73 dc3d 170f ad3d 4632 3d3c
00000230: 95f6 c4bc f721 a33d 636a 8f3b 6570 76bd
00000240: d4d9 8dbd bfc4 8fbd 7a0f a2bd 250b b1bd
00000250: 5283 a03c 113a 39bd f4ee aabc 7ab2 853c
00000260: c45c 0e3d a0d7 fabc fc87 1a3d 7527 2c3d
00000270: a5d1 37bd 3336 923d ceee c8bc e7f3 a3bc
00000280: cf27 61bd 5638 633d a990 a33c ad29 2d3d
00000290: 4e71 1abc 7353 ec3c bd1f 5bbc a630 1ebd
000002a0: cb51 2e3c be15 74bc ef41 e63b 0f36 ccbc
000002b0: d9fd 833c 17f8 773c 121c 8bbb e9cb 58bd
000002c0: 6960 be3c 5cf6 eebc a35a 673c 4398 873d
000002d0: c164 33bd c1af ae3d 4a18 92bd 48f6 663d
000002e0: 7f0a 4c3d 8d2e 60bc f833 8bbd f86e 5c3c
000002f0: 9b90 663b 8623 1fbc e657 94bb 01f6 113c
00000300: b4e4 f73d b1ec c93d d037 093e d3b9 443d
00000310: 9a3c a3bc 9398 7b3b de22 833d 499f 41bd
00000320: 6e76 0d3c fd0e 81bd 94c7 003d 59a2 c93c
00000330: 9aed fabc 81f8 1cbb 10c4 99bd bfc5 60bd
00000340: 3e70 0d3c 27ae 0fbd a1c1 0e3c 4aab 42bb
00000350: 5e4b 8f3d 70e8 523d 9ddc 423d 5431 533d
00000360: f5a1 42bd 3553 803c e7fa 4ebb 3380 bbbd
00000370: 43ea 193b 963b c7bc f0b7 ee3c 0c1d 423c
00000380: 27ba 833c a2c7 953a f5bc 84bd 6d4b 523d
00000390: 2d69 aa3c e4af f43b 8a38 ea3b c24f 64bd
000003a0: b7bb 8c3c fa0f 93bd 48a4 0c3b 6399 8f3c
000003b0: e0d3 6c3d 1361 17bc 112b 3ebd a8e0 c33c
000003c0: bafe 34bd dbb3 a3bb 4595 fdbc bbf5 8dbc
000003d0: 5263 24bd 9a66 85bd 4902 3bbd 6a62 20bd
000003e0: 8cfd 203d ba3c 82bd a0cd 2fbd 5756 bb3c
000003f0: 5d11 40bd c874 2e3d 298a 1e3d b920 51bd

conv2.bias f4 [20]
0.022953713 -0.018893206 0.048347756 -0.027610015 -0.023042642 -0.0321227 -0.037306592 -0.01709365
-0.053581845 -0.02798024 0.015692947 -0.061227966 -0.05241858 0.06420645 -0.035971645 -0.07051741
-0.005279704 -0.071274094 -0.065344006 0.014284053
00000000: 6d09 bc3c edc5 9abc 4c08 463d 662e e2bc
00000010: ecc3 bcbc 1893 03bd ccce 18bd fb07 8cbc
00000020: a378 5bbd d136 e5bc 7f8e 803c 2dca 7abd
00000030: ddb4 56bd ac7e 833d 0157 13bd 6f6b 90bd
00000040: 5e01 adbb 27f8 91bd 14d3 85bd a907 6a3c

fc1.weight f4 [50, 320]
-0.080837995 -0.054829422 0.043509018 0.017298145 0.031166675 -0.023759594 0.050533924 0.009361537
-0.033142146 0.049863204 0.08424486 0.0035498769 -0.012251382 -0.02669806 -0.01070487 -0.02858386
-0.06634033 -0.00369298 -0.040701564 0.021244865 0.01579484 -0.013363329 0.058315687 0.04265287
0.02011861 -0.056070834 0.044941492 0.008912605 -0.02813593 -0.042010557 -0.032074887 -0.01688629
-0.020610888 -4.9994964e-05 -0.08453405 -0.07255827 -0.01457133 0.03474542 0.050705872 0.09200615
0.020600056 -0.00079396425 -0.052957986 -0.019452775 -0.023745539 -0.022360474 0.024413403 -0.052870605
-0.046656493 0.06736653 0.052179236 0.0155830085 -0.028643329 0.039106682 -0.05094478 -0.007409334
-0.021355728 -0.011671341 -0.05609642 -0.08622273 -0.04453199 -0.018520515 0.047741536 -0.06974698
0.017853538 0.05083566 0.036613196 -0.009427337 -0.028309725 0.0068930364 -0.014972361 -0.025904402
-0.020864155 -0.031090975 0.01852706 0.014218792 -0.010383232 0.055243418 0.019549724 -0.019237876
-0.07658224 0.035716325 0.017914448 -0.07792799 -0.05329199 0.03144096 -0.018969515 -0.004417493
-0.015710928 0.00038221 0.0025264632 -0.021148667 -0.009970208 0.073202245 0.067744575 -0.018679151
-0.0640652 0.056518115 0.018988159 0.024952713 0.021960158 -0.010958294 -0.05610597 0.027569827
-0.010610679 -0.041464906 0.010903284 0.009179048 0.0194648 -0.049707897 -0.048020568 0.0006636699
-0.011261897 -0.11157054 0.03338166 0.019233944 0.021087674 -0.0038110549 0.047953106 0.041938912
0.02384637 -0.005900286 -0.028165309 -0.013378274 -0.028654316 -0.024347566 0.021565666 -0.032719396
-0.03943008 -0.011588987 0.05726049 0.014811044 0.024652852 0.03500774 0.068783075 0.04007965
0.04010344 -0.059199095 -0.010154145 0.021692423 -0.015768448 -0.013359407 -0.022559837 -0.040688448
-0.068081275 -0.035147965 -0.018038718 0.032510094 0.015740234 0.0034871132 0.006443181 -0.063845955
0.00731958 -0.0026711281 -0.016158175 0.035901804 0.037467238 0.03512317 0.05005436 0.023265168
-0.019697428 0.007019758 -0.039973915 -0.009876575 0.006398064 0.02163783 0.06603844 -0.014265081
-0.07350851 0.049984246 0.0060995333 0.047199834 0.039278395 0.060184 0.059273984 -0.020815644
-0.010096417 -0.0704073 -0.027462143 -0.061562594 -0.024124086 0.053863075 0.008144129 -0.06322417
0.019623045 -0.015241575 0.037619293 0.0011289155 0.020319171 0.023691745 0.0162097 0.043995183
-0.022817696 0.02968393 -0.018151628 0.002163014 0.01569184 0.066838376 0.019889329 0.013332052
-0.01031235 -0.04862914 -0.021488847 -0.015005524 0.0019824603 0.02253226 0.023706967 -0.02777976
-0.060257327 0.027054112 0.054957286 0.07382392 0.008620632 -0.06108636 -0.022524772 0.0066383476
-0.06813063 -0.0067007025 -0.012422336 -0.024792116 -0.09145866 -0.020999132 -0.050837353 -0.06337783
0.014356764 0.0073569394 -0.060693204 -0.07149431 0.0116221765 -0.02155878 -0.040059958 -0.0046523684
-0.026056502 0.05064796 0.042139687 -0.0038470225 0.0129254805 0.030080209 0.034771457 0.03963205
0.014136117 0.027838271 -0.08229359 -0.053607598 -0.068708636 0.034883466 -0.027060555 0.058853146
-0.0097927805 0.06939064 0.046402942 -3.670889e-05 -0.019927843 0.014499297 -0.024824286 -0.09200535
00000000: 648e a5bd d194 60bd 8336 323d d7b4 8d3c
00000010: 4151 ff3c 7ba3 c2bc a9fc 4e3d 2261 193c
00000020: 0fc0 07bd 5c3d 4c3d 9288 ac3d 0da5 683b
00000030: 05ba 48bc e4b5 dabc 7b63 2fbc b328 eabc
00000040: 70dd 87bd ec05 72bb afb6 26bd b609 ae3c
00000050: 2e64 813c ddf1 5abc 6edc 6e3d c7b4 2e3d
00000060: c8cf a43c 88aa 65bd 9214 383d 2d06 123c
00000070: 527d e6bc 4313 2cbd f560 03bd 1e55 8abc
00000080: 2ad8 a8bc afb1 51b8 3020 adbd 6e99 94bd
00000090: 96bc 6ebc 3751 0e3d f6b0 4f3d b86d bc3d
000000a0: 73c1 a83c 0a22 50ba 79ea 58bd 6d5b 9fbc
000000b0: 0186 c2bc 502d b7bc 9efe c73c d98e 58bd
000000c0: e11a 3fbd 77f7 893d e5b9 553d e04f 7f3c
000000d0: 6aa5 eabc 542e 203d 79ab 50bd 00ca f2bb
000000e0: 35f2 aebc 2739 3fbc 5cc5 65bd 8b95 b0bd
000000f0: 2d67 36bd 56b8 97bc a18c 433d 81d7 8ebd
00000100: 9541 923c 0e39 503d b8f7 153d 1e75 1abc
00000110: cce9 e7bc fbde e13b a24e 75bc 7835 d4bc
00000120: 4eeb aabc 80b2 febc 10c6 973c f0f5 683c
00000130: 6e1e 2abc ec46 623d be26 a03c c098 9dbc
00000140: 26d7 9cbd 484b 123d 52c1 923c b698 9fbd
00000150: b448 5abd 3cc8 003d f565 9bbc 9ec0 90bb
00000160: 34b4 80bc 5c63 c839 0593 253b f83f adbc
00000170: 155a 23bc 0feb 953d abbd 8a3d 0505 99bc
00000180: 9e34 83bd 8a7f 673d 0e8d 9b3c a269 cc3c
00000190: cae5 b33c 6b8a 33bc 60cf 65bd 1eda e13c
000001a0: 6ad8 2dbc 1bd7 29bd b0a3 323c b863 163c
000001b0: a574 9f3c 829a 4bbd 37b1 44bd 22fa 2d3a
000001c0: d283 38bc 187f e4bd 35bb 083d 8190 9d3c
000001d0: 0fc0 ac3c e4c2 79bb 7a6a 443d 23c8 2b3d
000001e0: 7659 c33c 3057 c1bb efba e6bc 8c30 5bbc
000001f0: 75bc eabc 8c74 c7bc 7baa b03c c604 06bd
00000200: 7081 21bd bcdf 3dbc fa89 6a3d 05aa 723c
00000210: c7f4 c93c 4764 0f3d 24de 8c3d 8f2a 243d
00000220: 8143 243d c07a 72bd 925d 26bc 4fb4 b13c
00000230: d52c 81bc 6ae1 5abc 68cf b8bc eea8 26bd
00000240: 326e 8bbd 50f7 0fbd efc5 93bc 4e29 053d
00000250: aaf1 803c 0d88 643b 5221 d33b abc1 82bd
00000260: 16d9 ef3b 180e 2fbb 265e 84bc c50d 133d
00000270: 3f77 193d 50dd 0f3d cd05 4d3d 9896 be3c
00000280: 805c a1bc 0006 e63b b0bb 23bd 5cd1 21bc
00000290: daa6 d13b d241 b13c 293f 873d 16b8 69bc
000002a0: a18b 96bd 48bc 4c3d 98de c73b 9d54 413d
000002b0: 62e2 203d 7f83 763d 47c9 723d 9285 aabc
000002c0: 716b 25bc b431 90bd 4af8 e0bc 0f29 7cbd
000002d0: e09f c5bc 879f 5c3d f46e 053c ac7b 81bd
000002e0: 82c0 a03c cdb7 79bc b016 1a3d 1ef8 933a
000002f0: 6474 a63c 3115 c23c 34ca 843c 4b34 343d
00000300: 2dec babc b72b f33c b9b2 94bc 5ac1 0d3b
00000310: 2c8c 803c 8fe2 883d f2ee a23c ae6e 5a3c
00000320: 21f5 28bc 592f 47bd 6109 b0bc bbd9 75bc
00000330: 2aec 013b 9395 b83c 1d35 c23c 6192 e3bc
00000340: 63d0 76bd 96a0 dd3c e41a 613d ff30 973d
00000350: 8d3d 0d3c b135 7abd df85 b8bc 7f86 d93b
00000360: 1288 8bbd 9191 dbbb 0e87 4bbc d618 cbbc
00000370: ae4e bbbd 5f06 acbc d43a 50bd 3ccc 81bd
00000380: a238 6b3c 7b12 f13b 7099 78bd 9c6b 92bd
00000390: f16a 3e3c 0a9c b0bc e915 24bd e572 98bb
000003a0: 7274 d5bc 3c74 4f3d aa9a 2c3d 541e 7cbb
000003b0: 65c5 533c c56a f63c 846c 0e3d 3755 223d
000003c0: 2c9b 673c 160d e43c 8b89 a8bd a493 5bbd
000003d0: 1db7 8cbd f7e1 0e3d 19ae ddbc ff0f 713d
000003e0: e671 20bc ae1c 8e3d 0311 3e3d dff7 19b8
000003f0: b73f a3bc 768e 6d3c 4d5c cbbc 4d6d bcbd

fc1.bias f4 [50]
0.052605916 0.027869662 -0.003575587 -0.0057360586 0.021683238 -0.004179919 0.0015644864 -0.03220213
0.027006513 0.009836751 0.025483688 0.058925644 -0.023337372 -0.004235855 -0.0017624856 -0.039266214
0.06426817 0.023846656 0.0720442 -0.027656363 0.029197987 0.024493914 -0.029488146 0.051495064
0.043501504 -0.0053184116 0.08040846 -0.021203402 -0.037011985 -0.03150902 -0.022600038 0.049511034
0.009381327 -0.030179104 -0.043863073 0.08197276 0.019769676 -0.060885396 0.037375316 -0.02712964
0.013846826 0.08007411 0.03798944 -0.036495667 -0.018062979 0.024469974 -0.03801285 -0.047425523
0.060968764 0.04573884
00000000: 4d79 573d eb4e e43c 6554 6abb 8cf5 bbbb
00000010: 0ca1 b13c b4f7 88bb 740f cd3a 61e6 03bd
00000020: c33c dd3c 532a 213c 2bc3 d03c 045c 713d
00000030: 042e bfbc edcc 8abb 3403 e7ba 9cd5 20bd
00000040: 089f 833d 105a c33c e98b 933d 998f e2bc
00000050: 9e30 ef3c 76a7 c83c 2091 f1bc 7dec 523d
00000060: a22e 323d 1246 aebb 31ad a43d c2b2 adbc
00000070: e199 17bd 9a0f 01bd b723 b9bc 15cc 4a3d
00000080: 23b4 193c 2b3a f7bc c4a9 33bd 56e1 a73d
00000090: 04f4 a13c f762 79bd dc16 193d fb3e debc
000000a0: ccdd 623c e5fd a33d d19a 1b3d 7b7c 15bd
000000b0: d0f8 93bc 4175 c83c 5db3 1bbd 4441 42bd
000000c0: 62ba 793d a658 3b3d

fc2.weight f4 [10, 50]
0.043010127 -0.094329216 0.17518447 0.120257996 -0.122319035 -0.065265216 -0.17267077 -0.1479782
-0.12125714 -0.11638108 -0.22018665 -0.11391718 -0.104882926 0.18737508 0.22513996 0.1483835
0.12306094 0.20985419 0.056402855 -0.10445586 -0.070283264 -0.15381949 -0.09133049 -0.21361965
-0.031570375 -0.19848143 -0.20270857 -0.2407219 0.12360934 0.193899 -0.17480774 -0.0667684
0.19486998 0.120647885 -0.12349448 0.19368233 0.15220498 0.015301211 -0.0657674 -0.15316415
-0.10891542 -0.2223636 0.11137903 -0.09406955 -0.0552989 0.20281444 -0.095129505 -0.047185984
0.08765084 -0.01828888 0.15865956 0.09753923 -0.18497223 0.047850907 0.12157802 0.16904691
-0.19553906 -0.017971294 0.06322637 -0.20634755 0.13429362 0.1870246 -0.12554699 -0.16025941
-0.07563095 -0.25472748 0.06610963 -0.044967666 -0.1958344 0.10302195 -0.13660656 0.025931627
0.15495917 0.18096842 0.22582373 -0.2518331 -0.27915192 0.15814881 0.13747174 0.018368261
0.19717996 -0.12326378 -0.18435487 -0.18579507 0.16854928 0.020245692 -0.15146385 -0.095072374
0.1691878 0.17569126 -0.05433364 0.12336857 -0.110384226 -0.19765925 0.14474107 -0.109140456
-0.17329991 0.18088587 -0.23978493 0.11814238 -0.116072565 -0.041471567 -0.06624515 -0.03625349
-0.10172857 0.14682876 0.11410138 0.06067311 0.17895703 0.020069104 -0.043165207 0.24837118
0.029911363 0.17241973 0.17924826 0.103726394 0.056399785 -0.05698589 -0.1391483 -0.19896702
-0.08271703 0.100391395 -0.13945316 -0.18061592 -0.108200245 -0.10132018 -0.15491007 0.080493316
-0.2069181 -0.029735686 -0.113771506 -0.09363834 0.0928543 -0.11049904 0.13093577 0.17408907
-0.063803405 -0.14408791 0.15248217 0.10628099 0.1600679 0.19008741 -0.1270985 -0.026494782
0.07738159 0.20408112 0.019380556 0.18261807 -0.16101284 0.16469659 -0.042977516 0.21538784
0.14692022 -0.1696269 -0.024926493 -0.15170123 0.084120005 0.13967021 0.0320274 0.039859395
-0.043279193 0.252139 -0.12932298 -0.005633671 0.051015776 -0.09868589 -0.032110926 -0.010077554
-0.1338997 0.14664741 0.172412 0.18933356 -0.016528765 -0.1159843 -0.14539655 -0.12305052
0.15753494 -0.04025507 0.17161435 -0.10388972 -0.23532811 0.18905912 -0.14951828 0.1105986
0.008657345 0.052154113 0.15981238 0.039539117 -0.20277691 -0.054819573 0.15687971 0.15653577
-0.13577305 0.12500232 0.1541915 -0.038266003 -0.117289506 -0.021608023 -0.099169485 0.15005262
0.042874403 0.0897366 -0.10104144 0.08997116 0.10330401 0.17249668 0.15277766 -0.1667958
-0.11709504 -0.08088818 0.21331926 -0.017814672 0.21759328 -0.17329197 -0.04601566 0.16580008
-0.21506323 -0.16279356 -0.0170099 -0.12088541 -0.14189486 -0.1839232 0.2222115 0.21109304
0.12514721 0.17923495 0.09000343 -0.014264962 -0.01737756 -0.08488723 0.12301635 0.2054781
-0.19553553 -0.22740835 -0.10215929 -0.1540009 -0.10015899 0.28375745 0.15772513 -0.061269138
-0.23788272 -0.1338282 0.06578721 -0.026458116 -0.14393753 0.038302794 -0.08808458 -0.18312258
0.20406103 -0.19417568 0.10802723 -0.12228762 0.008928739 -0.22934295 0.08570962 -0.10500938
00000000: 632b 303d ad2f c1bd 8f63 333e d349 f63d
00000010: 6782 fabd c5a9 85bd 9bd0 30be 9987 17be
00000020: aa55 f8bd 3459 eebd 9c78 61be 694d e9bd
00000030: dccc d6bd 41df 3f3e 178b 663e d8f1 173e
00000040: 6007 fc3d 04e4 563e ae06 673d f4ec d5bd
00000050: acf0 8fbd db82 1dbe 7b0b bbbd 1cbf 5abe
00000060: f04f 01bd b73e 4bbe d692 4fbe cd7f 76be
00000070: e526 fd3d 768d 463e cd00 33be dfbd 88bd
00000080: ff8b 473e 3d16 f73d adea fcbd a954 463e
00000090: 9fdb 1b3e eeb1 7a3c 0fb1 86bd 10d7 1cbe
000000a0: 0c0f dfbd 49b3 63be b01a e43d 89a7 c0bd
000000b0: 1981 62bd 97ae 4f3e 42d3 c2bd 1746 41bd
000000c0: 4982 b33d 90d2 95bc a777 223e a6c2 c73d
000000d0: 5c69 3dbe 50ff 433d e6fd f83d a21a 2d3e
000000e0: 643b 48be 8938 93bc d47c 813d c64c 53be
000000f0: 4484 093e 6083 3f3e 648f 00be 0b1b 24be
00000100: 66e4 9abd a46b 82be 7c64 873d 0430 38bd
00000110: d088 48be 2cfd d23d 97e2 0bbe 906e d43c
00000120: 9ead 1e3e c94f 393e 563e 673e 45f0 80be
00000130: 00ed 8ebe c3f1 213e 64c5 0c3e 0979 963c
00000140: 8be9 493e b871 fcbd 86c7 3cbe 1041 3ebe
00000150: 2f98 2c3e 4bda a53c 5719 1bbe 4eb5 c2bd
00000160: 913f 2d3e 69e8 333e f38c 5ebd a9a8 fc3d
00000170: 2011 e2bd 3067 4abe 0137 143e 0885 dfbd
00000180: 8875 31be 253a 393e 2e8a 75be a2f4 f13d
00000190: 74b7 edbd 17de 29bd 8aab 87bd 8a7e 14bd
000001a0: 1257 d0bd 475a 163e fcad e93d 5e84 783d
000001b0: 8340 373e f667 a43c 00ce 30bd 0455 7e3e
000001c0: ad08 f53c cc8e 303e db8c 373e 816e d43d
000001d0: 7603 673d 096a 69bd e47c 0ebe 03be 4bbe
000001e0: 8c67 a9bd 019a cd3d cfcc 0ebe 61f3 38be
000001f0: 1798 ddbd f480 cfbd bfa0 1ebe aed9 a43d
00000200: 57e2 53be 4198 f3bc 0901 e9bd 75c5 bfbd
00000210: 652a be3d 524d e2bd 0714 063e 6844 323e
00000220: 5cab 82bd c88b 13be 4924 1c3e d9a9 d93d
00000230: d7e8 233e 46a6 423e 1c26 02be 960b d9bc
00000240: 3d7a 9e3d a4fa 503e f9c3 9e3c 3b00 3b3e
00000250: 8de0 24be 39a6 283e 3109 30bd a18e 5c3e
00000260: 4172 163e adb2 2dbe a532 ccbc 9157 1bbe
00000270: 1c47 ac3d b505 0f3e 2a2f 033d 9b43 233d
00000280: 8645 31bd 5d18 813e 3e6d 04be a89a b8bb
00000290: ebf5 503d d41b cabd bf86 03bd 531c 25bc
000002a0: 011d 09be bd2a 163e c58c 303e a8e0 413e
000002b0: 5567 87bc 2d89 edbd d5e2 14be e901 fcbd
000002c0: d750 213e 80e2 24bd acbb 2f3e 22c4 d4bd
000002d0: daf9 70be b798 413e 521b 19be 8581 e23d
000002e0: 89d7 0d3c 8d9f 553d dba5 233e c5f3 213d
000002f0: c0a4 4fbe 7d8a 60bd 13a5 203e ea4a 203e
00000300: 1708 0bbe 9c00 003e 60e4 1d3e d0bc 1cbd
00000310: 7b35 f0bd 4f03 b1bc 5f19 cbbd 65a7 193e
00000320: 129d 2f3d d3c7 b73d d1ee cebd cd42 b83d
00000330: 0e91 d33d f8a2 303e bf71 1c3e 85cc 2abe
00000340: 86cf efbd b4a8 a5bd 5d70 5a3e 13f0 91bc
00000350: c6d0 5e3e 7373 31be eb7a 3cbd 7fc7 293e
00000360: 8939 5cbe 5bb3 26be 5958 8bbc c592 f7bd
00000370: e34c 11be 5d56 3cbe 698b 633e c628 583e
00000380: 9726 003e 5e89 373e b853 b83d 96b7 69bc
00000390: 625b 8ebc 5bd9 adbd ffef fb3d da68 523e
000003a0: 773a 48be bcdd 68be e438 d1bd 69b2 1dbe
000003b0: 2820 cdbd a848 913e b282 213e 59f5 7abd
000003c0: 8797 73be 420a 09be 72bb 863d b1be d8bc
000003d0: 5c64 13be 64e3 1c3d b065 b4bd 7c84 3bbe
000003e0: 60f5 503e fdd5 46be 613d dd3d ef71 fabd
000003f0: d849 123c e1d8 6abe 8688 af3d 280f d7bd

fc2.bias f4 [10]
-0.057014592 0.068577245 -0.061473414 -0.12598027 0.007053235 0.09641664 -0.1430905 -0.11844429
0.101489104 -0.065939076
00000000: 2288 69bd 3a72 8c3d 8ccb 7bbd f900 01be
00000010: d31e e73b 1676 c53d 5186 12be eb92 f2bd
00000020: 85d9 cf3d 110b 87bd
